code/examples/classifier_compression/weights_sin2Reg/cifar10_L5_weights2.npy (npy, 3488 bytes, 1 tensors)

array f4 [10, 84]
00000000: ecb9 30bc b683 98be 2e6c 83be 0882 cdbe
00000010: 0759 babd 8da4 1e3e 2ad1 1dbe 725d 00bd
00000020: 5053 81be 3c90 ecbe 73b1 033d c2e3 e1be
00000030: 5402 70bc e846 983e ea81 b73e d536 753e
00000040: 5452 5f3f 0c37 f7be 5217 cdbe 96eb 92bd
00000050: 1809 5ebd 4f6d adbe aa1f 98be a372 83be
00000060: e93b cdbe 8758 5d3e 856c ecbe 21fc 1cbc
00000070: 41f0 e2bd 8bdb 473e 1332 00bf 82a2 d73e
00000080: ceee a2be b009 e8bd 32d1 32be bcd4 1e3e
00000090: 8492 3c3e d1d9 003f 219c 253f 5b0a e8bd
000000a0: 7cd0 fcbc 98b3 923d 2053 1d3e 662f 5cbe
000000b0: e323 b8be 464b 30bc 11c6 cc3e 4599 04be
000000c0: 6fd9 47be d56e 08be 53bc f6be 2636 08be
000000d0: fdcf 83be 10ca 00bf c378 95bd d46d 1d3e
000000e0: fa8e ecbe 7fcf c2be 59c7 c23d 0c26 98be
000000f0: f4d9 9c3d e36c 91bd 8db8 a23e 1363 51bd
00000100: 0107 523d 1048 93bd 4463 e83d 419b 1d3e
00000110: c150 353c fab4 83be 8213 b8be 6008 063f
00000120: 0c04 fcbc 2cb4 083e a2fc b73e b889 ec3e
00000130: 0e1e bd3d ec12 00bd 8b1a 5b3e 9aae 483e
00000140: 5b7d bd3d 56aa adbe d5de 313e 7027 523d
00000150: fbee 8dbe 2ee6 8dbe 1ffc 71be ff40 e2be
00000160: e104 2ebc abc1 4d3d 9b0a 063f 6869 d8be
00000170: e7c7 213e ec58 b8be f508 ff3c 4906 003d
00000180: 8026 adbe 8cfd bcbd 4b32 2cbc 1014 8f3e
00000190: 5d33 e23e f014 45bf 175f a2be 6eae 09be
000001a0: 7faf 10bf a3a2 323e 0849 1dbe 5025 bebd
000001b0: cb16 45bf 82a2 033d c9a1 083e 3172 bc3d
000001c0: 94d9 833e 1a54 e7bd 5d0c 47be f549 93bd
000001d0: ff5a ad3e 6b4d 25bf 4e74 ad3e f087 833e
000001e0: 863f fb3c 26cb 003f d9c9 00bf 96ec 073e
000001f0: 4f84 833e 8082 d7be 8c5d 083e a92f 073e
00000200: e96b e7bd 2324 c3be a2a3 103f c785 3b3c
00000210: 48f6 c0bd 4e89 ecbe ca53 c23e 4b4a a23e
00000220: 29d8 32be 0eb9 08be 804d 2f3c 6c0a e8bd
00000230: 83c2 47be f205 1bbf fa65 0e3f 321e 99be
00000240: 2f41 e83d 2c81 71be dffb a23e ff79 5b3e
00000250: a8a0 64bf 62bc 00bf 0bf1 05bf a06a 70be
00000260: 040e be3d 354c 8f3d 5976 83be fb6c 98be
00000270: 8eba fb3c b283 c2be e907 8e3e 55e1 92bd
00000280: 68f1 a2be c4ba 47be 9d9b 473e 460f e33e
00000290: bff3 053f 7254 713e de93 09be 59e4 503c
000002a0: e4a9 3a3f 2ae0 1d3e 85ca 713e e1c6 93bd
000002b0: 465d edbd ac66 59bd 5590 983e 6679 923d
000002c0: 1059 1ebe f390 493e f802 98be c69f 1dbe
000002d0: 7f1f b8be f087 5cbe f93b fa3c 6dcf 70be
000002e0: 18b0 323e 6533 093e c578 e73d 7ee5 473e
000002f0: d323 46be c391 52bd 010a 06bf 0630 a3be
00000300: 1fdc 5c3e d45d 923d bede 8dbe 9d74 ad3e
00000310: 16a1 2dbc 61a3 1d3e c063 053e 8ead 08be
00000320: d712 063f d1f5 f0bd ea01 e2be 9e0d b8be
00000330: 18b1 043e 3c7b c2be 13bc 2a3f 02da bebd
00000340: 7a41 f7be c298 32be e42a 723e 7992 553d
00000350: e9c8 15bf 9a45 0dbe 4e61 51bd 14a6 1cbe
00000360: 79f3 0b3e 44f2 053f ecad 32be 0f26 723e
00000370: 38fa 46be 6cf1 8d3e 6d6b e7bd 9d39 fb3c
00000380: dfe2 693f 7a03 093e 3923 363c b5e3 8ebd
00000390: 9b52 8fbe ab43 90be 14b7 e83d fb25 0abe
000003a0: 2b4b 733e 1a70 d7be bec7 1d3e 81b1 30be
000003b0: c7a8 91bd 9c73 82be cd5c 93bd a6f2 b73e
000003c0: dc4e 083e 8d71 d73e a2d5 2a3f 5127 adbe
000003d0: 84ba 5cbe 24e9 933d cdbc 0b3e b17b f83c
000003e0: 3192 e63d ec36 e6bd a12e 95bd 3fff 153c
000003f0: e898 1dbe e66d 983e 6303 e2be a1b7 31be
-0.010786515 -0.29787987 -0.25668472 -0.40138268 -0.09099012 0.15492459 -0.15411821 -0.031339116
-0.25258875 -0.46203792 0.03215165 -0.44119078 -0.014648993 0.29741597 0.35841304 0.23946698
0.87235 -0.48284185 -0.40056854 -0.07173841 -0.05420789 -0.33872458 -0.29711658 -0.25673398
-0.4008477 0.21615802 -0.46176544 -0.009581597 -0.11080981 0.19517343 -0.5007641 0.4211617
-0.3182282 -0.11329973 -0.17462614 0.15510839 0.18415266 0.5033236 0.6469136 -0.113301
-0.030861132 0.07163161 0.15363741 -0.21502456 -0.3596488 -0.010760134 0.39994863 -0.12949093
-0.19516538 -0.13323529 -0.48190555 -0.13301906 -0.2574462 -0.5030832 -0.07298424 0.15373927
-0.46202832 -0.38048932 0.09510679 -0.29716527 0.07658759 -0.071008466 0.31781426 -0.051119875
0.05127621 -0.07191479 0.113470584 0.15391256 0.0110666165 -0.25724012 -0.35952383 0.5235653
-0.030763648 0.1334998 0.3593493 0.4619882 0.09234248 -0.031268045 0.21396844 0.19597855
0.09252425 -0.33919019 0.1737016 0.05130714 -0.2772139 -0.27714676 -0.23631333 -0.44190213
-0.01062128 0.050233524 0.5235993 -0.4226792 0.15798913 -0.36005342 0.0311322 0.031255994
-0.33818436 -0.09228048 -0.010510038 0.27944994 0.44179812 -0.76985073 -0.31713173 -0.13445446
-0.56517786 0.17444853 -0.1535989 -0.092844605 -0.76987904 0.0321374 0.13342966 0.09201468
0.25751936 -0.11295338 -0.1943831 -0.071918406 0.33858487 -0.64571255 0.33877796 0.2568965
0.030669939 0.5030998 -0.50307995 0.13273844 0.2568688 -0.4209175 0.13316935 0.13201775
-0.11299879 -0.38113508 0.56499684 0.011445469 -0.094219744 -0.46198505 0.3795455 0.31697306
-0.17465271 -0.13351843 0.01069963 -0.11330113 -0.19507794 -0.60555947 0.55624354 -0.2990585
0.11340558 -0.23584431 0.31832787 0.21433257 -0.8930764 -0.5028745 -0.5232093 -0.23478174
0.09280017 0.06996957 -0.2567623 -0.29770645 0.030728605 -0.379911 0.2774041 -0.07171885
-0.31824803 -0.19504839 0.19492956 0.4434759 0.5232505 0.2356737 -0.13435313 0.012749755
0.7291548 0.15417543 0.23612411 -0.072156675 -0.11590056 -0.05307643 0.29797617 0.07152061
-0.15463662 0.196842 -0.29689765 -0.1539298 -0.3596153 -0.21536231 0.030546175 -0.23516627
0.17449987 0.13398512 0.11302332 0.19521138 -0.19349603 -0.05140854 -0.52359015 -0.31872576
0.21568345 0.071468025 -0.27709 0.3387803 -0.010597488 0.15394355 0.13026333 -0.13347456
0.523725 -0.11765636 -0.44142085 -0.3594789 0.12958181 -0.37984645 0.6669323 -0.093189254
-0.48292142 -0.17441085 0.23649174 0.05214164 -0.5850969 -0.13796082 -0.051118188 -0.15297729
0.13667096 0.52322793 -0.17449158 0.2364733 -0.19431388 0.27723253 -0.11299787 0.03066712
0.913618 0.13380232 0.011116796 -0.069770254 -0.2799271 -0.28176627 0.113630444 -0.13491051
0.23759143 -0.42077714 0.15408227 -0.17255212 -0.0711227 -0.25478828 -0.07195435 0.35927314
0.13311332 0.4207882 0.6673223 -0.3381906 -0.21555525 0.072222024 0.1364624 0.030332418
0.112583525 -0.11240944 -0.072842844 0.009155094 -0.1539036 0.29771346 -0.4414321 -0.17355205
