code/examples/classifier_compression/weights_sin2Reg/cifar10_L4_weights2.npy (npy, 40448 bytes, 1 tensors)

array f4 [84, 120]
0	0xbe40114a	-0.18756595
1	0x3e037c31	0.12840344
2	0xbd8f107d	-0.06985567
3	0xbcc938e6	-0.024563264
4	0xbcc6aeab	-0.02425321
5	0xbe2f0fbb	-0.17095844
6	0x3dda43b4	0.106574446
7	0x3d2a0d5f	0.041516658
8	0x3dc354a3	0.095376275
9	0xbdfb3251	-0.122654565
10	0xbd0eeec2	-0.034895666
11	0xbbb475b5	-0.005507196
12	0xbc12a5fb	-0.008950706
13	0xbe3098a4	-0.17245728
14	0xbd93bff2	-0.07214345
15	0xbcc5db84	-0.024152525
16	0x3e19f22a	0.15033785
17	0x3d6b3ded	0.057432104
18	0x3c0522b0	0.008125946
19	0xbc695a09	-0.014242657
20	0x3c3ea26b	0.011635403
21	0x3cc91aff	0.024549006
22	0x3dd6f83f	0.10496568
23	0xbbbe60cc	-0.005809879
24	0xbe0babfd	-0.13639827
25	0xbe8a5979	-0.27021387
26	0xbdda1252	-0.106480256
27	0x3d95ddd7	0.07317703
28	0xbd2775ef	-0.040883955
29	0x3d848919	0.06471462
30	0xbdb76ef6	-0.08956711
31	0x3e626902	0.2211037
32	0x3d13f24f	0.036119755
33	0xbcf9ff0f	-0.03051713
34	0xbdf5416c	-0.11975369
35	0xbe2fd836	-0.17172322
36	0xbd96ec89	-0.07369334
37	0x3d4beac2	0.04978443
38	0xbd968519	-0.07349605
39	0xbc03e589	-0.008050331
40	0x3d4a58dc	0.04940115
41	0x3ce95779	0.028484093
42	0xbe939582	-0.28825003
43	0xbd63c222	-0.05560506
44	0x3ebca8c9	0.36847523
45	0x3d913ae7	0.07091313
46	0xbe7308bc	-0.237338
47	0xbcc72ca5	-0.02431328
48	0xbeb44819	-0.35211256
49	0xbdd65d28	-0.10466987
50	0xbd6e5128	-0.058182865
51	0xbddc7d81	-0.107661255
52	0x3e0cbebb	0.13744633
53	0xbd9af46d	-0.07566152
54	0xbd970d33	-0.073755644
55	0xbd96e4d6	-0.07367866
56	0xbd2291f5	-0.039689977
57	0x3e7470d2	0.23871163
58	0xbdd9bc2d	-0.10631595
59	0x3e0b36b2	0.13595083
60	0x3d988f25	0.07449178
61	0x3ea37e1c	0.3193215
62	0x3cfc2b41	0.030782344
63	0x3c11b57b	0.008893366
64	0xbd55d6b9	-0.05220673
65	0xbe40dc04	-0.1883393
66	0x3ea39e64	0.3195678
67	0x3dfbcaae	0.122945175
68	0x3de032e1	0.109472044
69	0x3e834ec1	0.25646022
70	0xbcae706d	-0.021293843
71	0xbe0e846c	-0.13917702
72	0x3cd70445	0.026247153
73	0xbe3fc0d1	-0.18725897
74	0x3caaedce	0.020865347
75	0xbeabcce8	-0.3355477
76	0xbd9b6ba2	-0.07588889
77	0x3d19753b	0.037465315
78	0x3dbd5160	0.09244037
79	0xbd6cd52d	-0.057820488
80	0x3d76928d	0.060198355
81	0x3bf49cc4	0.007464977
82	0x3cc0fe58	0.02355878
83	0x3bf40794	0.0074471924
84	0xbc063383	-0.008190992
85	0xbc1ca1d6	-0.009560069
86	0x3c695126	0.014240539
87	0xbdd30bdb	-0.103049956
88	0x3e03ee5f	0.128839
89	0x3e519f25	0.20470865
90	0x3e820108	0.25391412
91	0xbc018bd7	-0.007906876
92	0xbcd5a9d5	-0.026081959
93	0xbcba94a0	-0.022775948
94	0x3e094355	0.13404591
95	0x3d4155ff	0.047201153
96	0xbe0cdfee	-0.13757297
97	0xbdc6512e	-0.096834525
98	0xbe6262aa	-0.2210795
99	0x3d713630	0.058889568
100	0xbce098f2	-0.02741668
101	0xbddda0be	-0.10821675
102	0xbe0e01f3	-0.13867931
103	0xbd03f8d5	-0.032219727
104	0xbeabe22b	-0.3357099
105	0xbe0af3f7	-0.13569628
106	0xbbff3929	-0.0077887964
107	0xbd6c7694	-0.057730272
108	0xbdd9df28	-0.10638267
109	0xbd9a8d25	-0.075464524
110	0xbebd22b6	-0.36940545
111	0x3d6b359f	0.057424184
112	0x3cda6ac0	0.02666223
113	0x3e3006f4	0.17190152
114	0x3d955277	0.072911195
115	0xbeabd987	-0.33564398
116	0xbdb853b2	-0.090003386
117	0x3c24abca	0.010050723
118	0xbd292a42	-0.041300066
119	0x3cc93559	0.024561571
120	0x3c325b77	0.010886065
121	0xbe3fcc78	-0.18730342
122	0xbd970904	-0.073747665
123	0x3d79d703	0.060996067
124	0xbe9b3585	-0.3031427
125	0x3d6e6c62	0.05820883
126	0x3c06d222	0.0082288105
127	0xbe400ae9	-0.18754162
128	0xbd95b9c5	-0.07310823
129	0xbe1f833d	-0.15577407
130	0x3d833b0f	0.06407749
131	0xbe2fe87e	-0.17178532
132	0x3ced7981	0.028988602
133	0x3e1f2f59	0.15545405
134	0x3e301c7e	0.17198369
135	0xbeabed7d	-0.33579627
136	0xbd6fbc07	-0.058528926
137	0x3dfa0fe7	0.122100644
138	0x3d24b609	0.040212665
139	0x3d9822bc	0.074285
140	0xbe0e0cb8	-0.1387204
141	0x3e626a02	0.22110751
142	0xbe5135a8	-0.20430624
143	0x3dd9adb3	0.106288336
144	0xbe7220a7	-0.23645268
145	0x3d6ab89b	0.05730496
146	0xbd952793	-0.07282939
147	0xbdd9e904	-0.10640147
148	0xbe495efc	-0.1966514
149	0x3dba57f4	0.09098807
150	0x3d965320	0.073400736
151	0xbd6abf20	-0.057311177
152	0x3bf8a165	0.007587599
153	0xbdd76aaf	-0.10518395
154	0x3d6a2b25	0.057170052
155	0x3e106276	0.1410006
156	0x3e301417	0.17195164
157	0xbe92a597	-0.2864196
158	0xbea33821	-0.3187876
159	0x3e73908f	0.23785613
160	0xbdb8a7ee	-0.09016405
161	0x3dbc10dc	0.09182903
162	0xbd23bfe7	-0.039977934
163	0xbe0b2aeb	-0.1359059
164	0x3db84f07	0.08999448
165	0xbcc8f962	-0.024532977
166	0x3db8432a	0.089971855
167	0xbe410ac7	-0.18851767
168	0x3eabe2e9	0.33571556
169	0x3dfb69db	0.1227605
170	0xbe40f5ec	-0.18843812
171	0x3d6cf7d7	0.057853546
172	0x3e8231ff	0.2542877
173	0x3dd924b9	0.106027074
174	0x3e61e05a	0.2205824
175	0xbdd9fde3	-0.10644128
176	0xbe627925	-0.22116525
177	0x3e4126aa	0.18862405
178	0xbeabf265	-0.3358337
179	0x3d67f31c	0.05662833
180	0xbe61fdbd	-0.2206945
181	0x3cc93b91	0.024564536
182	0x3d2796b0	0.04091519
183	0x3e9b1130	0.3028655
184	0x3cd2f088	0.02574946
185	0x3e519aa4	0.20469147
186	0xbc0664cb	-0.008202742
187	0x3e626bc8	0.22111428
188	0xbe1f4e20	-0.15557146
189	0xbc04e207	-0.00811053
190	0x3e424692	0.18972233
191	0x3c05f15e	0.008175222
192	0x3be82ac1	0.007085175
193	0xbd696e4c	-0.056989953
194	0x3e61e201	0.2205887
195	0x3c0552a9	0.0081373835
196	0xbe41b6d0	-0.18917394
197	0xbe616816	-0.22012362
198	0x3de723a4	0.11286095
199	0xbe8a2475	-0.2698094
200	0xbc0f060d	-0.00872947
201	0xbcbf81f6	-0.0233774
202	0xbdb8804c	-0.09008846
203	0xbe51a962	-0.2047477
204	0x3e7327e5	0.23745687
205	0xbdb9db9f	-0.090750925
206	0xbd9532d2	-0.07285084
207	0x3d194790	0.037421763
208	0xbd96f26e	-0.073704585
209	0x3dda1a41	0.10649539
210	0x3e300eb8	0.17193115
211	0xbe321a7f	-0.1739292
212	0xbe41dbd5	-0.18931516
213	0x3db7cef2	0.089750186
214	0xbdd9112e	-0.1059898
215	0x3dfc96a0	0.12333417
216	0x3dfb7816	0.12278764
217	0xbcc2bae0	-0.02377075
218	0xbdda0089	-0.10644633
219	0x3dbaf0fb	0.091279946
220	0x3cd0990e	0.025463607
221	0xbe1f5013	-0.1555789
222	0x3d2d46a3	0.042303693
223	0xbdd92d30	-0.10604322
224	0xbe626308	-0.2210809
225	0xbe89bfb8	-0.26904082
226	0x3d685516	0.05672177
227	0xbdd9d1fc	-0.106357545
228	0xbe40d950	-0.18832898
229	0xbdb484c3	-0.08814385
230	0xbe8a546b	-0.2701753
231	0xbe0f15a7	-0.13973103
232	0x3d280d04	0.041028038
233	0x3e519dc7	0.20470344
234	0xbcc9c0b1	-0.024628015
235	0xbebca99f	-0.3684816
236	0x3db7e38e	0.089789495
237	0x3e20d1e3	0.15705065
238	0x3dfba196	0.122866794
239	0xbebca2bc	-0.36842906
240	0xbea38027	-0.3193371
241	0x3e0e8a02	0.13919833
242	0xbea39882	-0.31952292
243	0xbd291a8e	-0.04128509
244	0xbebcc0cb	-0.3686584
245	0x3e6161ce	0.22009966
246	0xbea38048	-0.31933808
247	0x3d27184c	0.040794656
248	0xbe9b7ae3	-0.30367193
249	0x3ebc5f91	0.3679166
250	0xbdfcbaba	-0.12340303
251	0x3cc86447	0.024461878
252	0x3e4088a6	0.18802127
253	0x3e81d852	0.25360352
254	0xbe816f8e	-0.25280422
255	0xbe0e8c6a	-0.13920751
