code/examples/classifier_compression/weights_sin2Reg/cifar10_L1_weights2.npy (npy, 1928 bytes, 1 tensors)

array f4 [6, 3, 5, 5]
000000 6c c0 da 3d cc f2 40 bf 99 6a 3f 3d c5 9e 92 bd
       0.10681233 -0.7537048 0.04673252 -0.07159189
000010 d7 7f 9b 3d f1 8a 9f 3e 07 5f ae 3e 54 b4 cd be
       0.07592743 0.3116069 0.34056875 -0.40176642
000020 f8 82 32 bf 34 80 98 bd 11 80 14 bf f7 0d 9e 3e
       -0.6973109 -0.07446328 -0.58007914 0.3087003
000030 d8 46 0b 3f 7f 4c 13 3f 9f 38 d0 3d d2 72 13 3f
       0.54404974 0.575386 0.101670496 0.57597077
000040 6a 1c 24 3e d5 b9 bf be 0a a9 42 3e 4e 21 bc 3e
       0.16026464 -0.37446466 0.19009796 0.3674416
000050 51 ed 58 3c 97 4a af be dd e9 ad 3e 7a 9b 59 3c
       0.013240174 -0.34236595 0.33967486 0.013281697
000060 79 1a da bd 28 85 91 bd 27 0e 40 3d fb 11 cc be
       -0.106495805 -0.07105476 0.046888497 -0.39857468
000070 60 78 d0 bd 39 26 05 3f 37 a3 ae be 02 eb 13 3f
       -0.1017921 0.5201145 -0.34108898 0.5778047
000080 cf ec 0c bf 02 2b 26 3e 9a ae 99 bd 04 6a 84 bc
       -0.5504884 0.16227344 -0.07504006 -0.016163833
000090 59 67 ad 3e 7d a3 d9 3e 57 ed ce be 3e ae dd be
       0.3386791 0.42507544 -0.4041545 -0.43297
0000a0 c2 0c 82 be 8d 9c 47 be f3 fd ca 3e d2 48 23 3e
       -0.25400358 -0.19493313 0.39646873 0.15945747
0000b0 4f 38 de be 84 47 88 bc 5f 8d 99 bd cd 00 68 bf
       -0.43402335 -0.016635664 -0.074976675 -0.9062622
0000c0 97 42 ea 3e 5c 36 ad 3e 5a 96 0c 3e 95 a6 2b 3f
       0.4575393 0.33830535 0.1372923 0.6705106
0000d0 1f 86 92 bd b1 05 ce bd 63 c1 40 3d 78 e4 81 3e
       -0.07154488 -0.10059679 0.047059428 0.2536962
0000e0 42 0d 28 3e 89 ee 95 3f 72 c2 8f be 12 30 32 bf
       0.16411307 1.171342 -0.28078038 -0.696046
0000f0 f8 48 d6 3d 95 1e 98 bd b6 fa af be 79 3d 0a be
       0.104631364 -0.07427708 -0.34370965 -0.13500012
000100 31 37 26 3e 0d f0 8f be d8 24 63 be 66 c6 13 3f
       0.16231991 -0.28112832 -0.22182024 0.57724607
000110 05 15 5e 3c 55 0f 59 3c 71 59 81 3e 89 d6 65 3e
       0.013554816 0.013248284 0.2526355 0.2244512
000120 64 6e be 3e 54 0f 45 be a5 ba 70 3c 1c e5 91 3f
       0.37193596 -0.19244128 0.014692937 1.1398044
000130 92 8c 61 3e 39 ac 80 3e 21 75 1b 3f 59 a2 bd 3e
       0.2202628 0.25131395 0.607256 0.37037924
000140 60 21 66 be 3b 60 91 be 47 3d d5 bd 51 98 0c bf
       -0.22473669 -0.2839373 -0.10412078 -0.54919916
000150 d8 dd 2a bf 63 70 05 bf a2 16 66 be 2e 39 96 3d
       -0.66744757 -0.52124614 -0.22469571 0.07335125
000160 8c 0a 26 3e 8b 6d fa 3e ef 47 0b be 32 ae 42 3e
       0.16214961 0.489117 -0.13601659 0.19011763
000170 8c 16 3a bd 1b 47 14 bf a2 4f 6f bf fe 77 fc be
       -0.04543166 -0.57921 -0.93480885 -0.49310297
000180 01 8e 1c bf 2e 7b c7 bf 0a 2a be be 27 2e 37 bd
       -0.6115418 -1.5584466 -0.37141448 -0.04472175
000190 8c ed 47 be e5 5f ce be 9f a0 07 3e 67 78 46 be
       -0.1952421 -0.40307537 0.13244866 -0.19381867
0001a0 35 58 ae 3e 65 51 82 be b7 58 f9 3e b2 fc 04 bf
       0.34051672 -0.25452724 0.48700497 -0.5194808
0001b0 1f ff 8f 3e 52 94 ae 3e f7 2b 66 be 1a 6e 61 3e
       0.2812433 0.34097534 -0.22477709 0.22014657
0001c0 52 1d 33 3d 6c be 5f 3f ef 46 d4 3d c4 f5 8e 3e
       0.043729134 0.87399936 0.10365092 0.2792188
0001d0 a1 69 13 3f 39 a5 50 3f 39 d1 32 3d d2 7e d5 bd
       0.5758305 0.8150211 0.04365656 -0.1042458
0001e0 51 2a 23 3e 22 8e 1c bf 29 02 a0 be 21 f4 76 bf
       0.15934111 -0.6115438 -0.31251648 -0.9646626
0001f0 0c 34 92 bf d2 27 2e 3d fe d4 23 bf 2e 0c eb 3e
       -1.1422133 0.042518444 -0.63996875 0.4590773
000200 94 c1 41 bf fb c3 63 3e 97 a2 af be 9e bd 23 bf
       -0.75686 0.2224273 -0.34303734 -0.6396121
000210 bb 6e eb be e5 ef 63 be 3a 83 67 bf 01 a8 13 3f
       -0.45982918 -0.22259481 -0.9043461 0.5767823
000220 6e 5f 0a be 92 b1 76 3f a0 45 fa 3e 67 4f 49 3f
       -0.13512966 0.963647 0.48881245 0.78636783
000230 82 6e 04 3f 2c f5 93 3d 10 f6 5f 3f e2 0c 64 be
       0.5173112 0.07224497 0.87484837 -0.2227054
000240 25 b0 41 3f 6d c5 31 3f b9 48 cf 3d 7c e3 5f 3f
       0.756594 0.6944187 0.101212926 0.8745649
000250 ee 2e 27 3e 22 c7 41 3f fe f9 43 be ae 30 60 3f
       0.16326496 0.7569448 -0.19138333 0.8757428
000260 0d 29 a5 3f 90 3d 14 3f 9c 04 05 3f 74 2c 32 bd
       1.2903153 0.57906437 0.5196016 -0.043499425
000270 fe f4 d1 bd 6d 1f 9c 3d 4c 63 05 3f b3 c6 cc be
       -0.10251807 0.076231815 0.5210464 -0.39995345
000280 00 f3 d5 3d 36 44 d7 3d 0c 62 04 bf e6 e4 65 3e
       0.10446739 0.10511057 -0.5171211 0.22450599
000290 56 37 eb 3e e6 50 3a 3f 8a 78 8f be 47 e0 2c bd
       0.45940655 0.7277969 -0.28021652 -0.042206075
0002a0 bd 40 9e be 3b 82 fa be ac 6e cc be 95 6e ae be
       -0.30908766 -0.48927483 -0.39928186 -0.34068742
0002b0 83 4c 80 be d3 7c ad be 41 2c 26 be 6e 85 ae be
       -0.25058374 -0.33884296 -0.16227819 -0.34086174
0002c0 53 f3 bd be 04 75 81 be 72 66 32 bf 87 1f 90 be
       -0.37099704 -0.25284588 -0.6968757 -0.28149053
0002d0 be 8a 26 3e f3 7b 0c bf 11 09 49 bf 08 1d d6 3d
       0.16263863 -0.5487663 -0.7852946 0.10454756
0002e0 86 28 45 3e 8c e6 25 3e 2e 23 14 bf d8 4c 58 bf
       0.1925374 0.16201228 -0.5786618 -0.84492254
0002f0 cc 75 bd be dd 8c 46 be 2a f3 48 3f 50 39 97 3d
       -0.37003934 -0.19389673 0.7849604 0.07383978
000300 7d 10 49 bf fc 3d 0c bf 53 d5 13 3f bb 07 ec be
       -0.78540784 -0.5478208 0.5774738 -0.46099648
000310 b3 c6 48 3f 8a 22 35 3d b7 f8 ae 3e 6d 00 d4 3d
       0.7842819 0.044222392 0.3417413 0.10351644
000320 b7 d5 36 bd d6 de ae be 20 04 3a bd 8e 4d 68 3c
       -0.044637408 -0.34154385 -0.04541409 0.014178647
000330 5c 69 23 bf 5f 6f 80 3e ea 1d 14 bf 6b 82 dc 3e
       -0.6383264 0.2508497 -0.57858145 0.4306825
000340 99 6d 45 3e 47 ca ea 3e db 2e cc 3e 4e 1e 38 bd
       0.1928009 0.4585745 0.39879498 -0.044950776
000350 a0 09 d4 bd 98 49 35 bd 1d d2 94 3d eb 82 2a 3f
       -0.10353398 -0.044259638 0.072666384 0.66606015
000360 c0 8d 6e 3c ee 68 68 bc dd eb db be d7 17 fb be
       0.014560163 -0.014185173 -0.42953387 -0.49041626
000370 b6 0a 60 3c ae 94 2a 3f d8 62 6e bc bb 39 09 3e
       0.013674429 0.6663312 -0.014549933 0.13400929
000380 ac 5b 08 3e 10 44 fc be cb 08 60 3e 66 51 9d 3e
       0.1331622 -0.49270678 0.21878354 0.30726165
000390 7a 7b 35 3c 99 a5 ed be a0 d5 0b 3f ea 8a 48 be
       0.011076802 -0.46415403 0.5462284 -0.19584242
0003a0 cb e5 ce be e2 e2 ec be 6c f1 03 3f 2e d9 48 3f
       -0.40409693 -0.46266848 0.51540256 0.7845639
0003b0 8f 14 04 c0 8a 51 9c bd 7c f8 31 3f c4 56 7f 3e
       -2.0637548 -0.0763274 0.6951978 0.24935442
0003c0 29 37 be be 89 48 64 3c f6 d1 90 3e 20 2d 14 3f
       -0.3715146 0.013933309 0.28285187 0.57881355
0003d0 22 0a a0 be ae 93 8f be 81 ba 32 3f 5e b2 66 3e
       -0.3125773 -0.28042358 0.6981583 0.22528979
0003e0 a0 ea 31 bf 99 c7 90 3e fa 90 83 be f6 4f 82 3f
       -0.69498634 0.2827728 -0.25696546 1.0180652
0003f0 ab 0a 40 3e a6 80 cf be db 55 ca 3e 60 c2 8e 3d
       0.1875407 -0.40527838 0.39518628 0.06970668
