code/examples/classifier_compression/weights_sin2Reg/cifar10_L2_weights2.npy (npy, 9728 bytes, 1 tensors)

array f4 [16, 6, 5, 5]
0.064921424 0.24230124 -0.3167036 -0.26535562 -0.03645225 0.18979345 -0.4175696 -0.2411399
0.08819491 0.26549602 -0.06456397 0.16345462 0.035940696 0.112997785 0.2912548 -0.21638612
-0.44371334 0.111979455 0.087369256 0.49408168 0.08735167 0.44293097 0.06201222 -0.015460262
0.2141209 0.0391312 -0.11417281 0.14121485 -0.086205944 0.14296123 0.21816278 -0.009991179
0.06626283 -0.38887203 0.09345359 0.21923015 -0.18631452 0.066735364 0.2187448 -0.28793544
0.0661265 0.36867708 -0.23978306 0.09030394 0.16791594 -0.13611585 0.091992624 -0.0857169
0.06488448 -0.26732904 0.2148149 0.11326307 0.16408932 0.16192476 0.11363166 -0.36685455
-0.06366189 -0.11571344 -0.19023342 -0.26486245 0.0889868 -0.26425815 0.038373537 0.01180674
-0.08680604 0.24123515 -0.18867633 -0.010621769 0.16383278 -0.013195138 -0.03567817 -0.11286573
-0.34149158 0.24016303 -0.036536343 -0.4189719 -0.24265206 -0.39217842 -0.16533689 -0.16378045
-0.57103145 -0.19100855 0.0100152865 0.037447296 0.23991033 -0.57120854 -0.16567826 -0.26630893
-0.240946 -0.088166945 -0.6456025 -0.59656006 0.10658902 -0.19008641 0.038252328 -0.34149766
-0.52007 -0.29280496 -0.039008886 0.18617024 0.19196719 -0.06268998 0.291107 0.08905836
0.2683887 0.14124753 0.065216064 0.21621186 0.16399378 0.14017452 0.3679355 -0.21597055
-0.44270492 -0.316297 -0.062670864 -0.08656601 -0.393062 0.24027877 -0.36646467 -0.36713785
0.1915194 -0.062710226 0.03940672 0.1541201 0.015363304 -0.01213124 -0.24271066 -0.31772292
0.2019385 -0.037595928 0.06441785 0.061728388 0.113261744 -0.13954245 0.13883819 -0.1370768
-0.49524876 -0.03738102 0.11954127 0.11236642 -0.08653451 -0.039303605 0.16477561 0.26671514
0.110761285 -0.08668557 -0.015282398 0.16466102 -0.088332124 0.009926121 -0.13954823 -0.24048184
-0.21490672 -0.26541457 -0.13866353 -0.21506354 -0.29182822 -0.5444206 -0.31635007 -0.18912068
-0.03782326 -0.18989845 0.21522726 0.11489982 -0.113393776 0.39285627 0.41763136 0.64681834
0.59696424 0.5211668 0.0901687 -0.290433 0.08863307 -0.163698 -0.13767189 0.14045693
-0.3162597 -0.24140303 0.34165016 0.18977408 0.0646857 -0.5439151 -0.063211344 0.19042096
-0.16396677 -0.010175146 0.2676316 0.7482743 0.26827124 0.090864114 -0.23819177 -0.18758053
0.090898134 -0.035664886 -0.061510365 0.013934382 -0.21448593 -0.062192924 0.16460565 -0.26610258
0.11498553 -0.39319927 0.010869265 -0.08879744 -0.1640511 0.41870242 0.2664175 0.4173713
-0.06287895 0.013041741 0.3181262 0.36711118 0.06364742 0.06375123 0.040205307 -0.11209132
-0.087417014 -0.2917297 -0.39350218 -0.5166891 -0.087160364 0.06434052 -0.11206252 -0.49323285
-0.4150905 -0.11441903 -0.44433802 -0.41936392 -0.039204888 -0.16495302 -0.26724458 -0.08981166
0.16396923 0.16531171 -0.06296897 -0.06329061 0.31641528 0.7217382 0.24128342 -0.2908869
0.014333094 0.31841967 -0.08864727 -0.5691476 -0.41753793 -0.06471078 0.14109248 -0.16259207
-0.5180767 -0.5184287 -0.03804322 -0.36720932 -0.16535944 0.08932909 0.21598563 0.08809752
00000000: 86f5 843d d11d 783e f926 a2be b1dc 87be
00000010: f44e 15bd 3759 423e afcb d5be 61ed 76be
00000020: 889f b43d 18ef 873e 1d3a 84bd a660 273e
00000030: 8d36 133d 626b e73d 591f 953e 5394 5dbe
00000040: 652e e3be 7c55 e53d a7ee b23d 46f8 fc3e
00000050: 6fe5 b23d d9c7 e23e 8700 7e3d 0a4d 7dbc
00000060: 8242 5b3e 0a48 203d 6fd3 e9bd a09a 103e
00000070: be8c b0bd 6e64 123e 1066 5f3e 0bb2 23bc
00000080: ceb4 873d 3c1a c7be 9964 bf3d de7d 603e
00000090: 3cc9 3ebe 8dac 883d a3fe 5f3e 466c 93be
000000a0: 556d 873d 3ec3 bc3e b189 75be 46f1 b83d
000000b0: 28f2 2b3e f461 0bbe a166 bc3d 588c afbd
000000c0: 27e2 843d 5adf 88be 70f8 5b3e 78f6 e73d
000000d0: 0807 283e 9bcf 253e b7b7 e83d 5cd4 bbbe
000000e0: 2a61 82bd 2bfb ecbd 8dcc 42be 0d9c 87be
000000f0: b63e b63d d84c 87be 922d 1d3d 0f71 413c
00000100: 5dc7 b1bd 5906 773e 5e34 41be ee06 2ebc
00000110: c8c3 273e 6c30 58bc 4623 12bd 2626 e7bd
00000120: fcd7 aebe 4ced 753e 22a7 15bd 7c83 d6be
00000130: c879 78be 9ccb c8be 134e 29be 10b6 27be
00000140: 1e2f 12bf bf97 43be 2817 243c 5662 193d
00000150: 0eab 753e b93a 12bf 90a7 29be a559 88be
00000160: 8cba 76be df90 b4bd 3546 25bf 29b8 18bf
00000170: 584b da3d 03a6 42be 79ae 1c3d c8d8 aebe
00000180: 4f23 05bf 88ea 95be c8c7 1fbd 69a3 3e3e
00000190: 0c93 443e 9b63 80bd fa0b 953e 3b64 b63d
000001a0: 3e6a 893e 31a3 103e 0090 853d a466 5d3e
000001b0: fced 273e e989 0f3e 0b62 bc3e 6227 5dbe
000001c0: 38aa e2be aef1 a1be 9559 80bd 8549 b1bd
000001d0: 6c3f c9be a30b 763e 42a1 bbbe 7ef9 bbbe
000001e0: a91d 443e 386e 80bd f168 213d a9d1 1d3e
000001f0: 5eb6 7b3c 1cc2 46bc 2589 78be 94ac a2be
00000200: f7c8 4e3e 30fe 19bd 81ed 833d e8d6 7c3d
00000210: c6f5 e73d 37e4 0ebe 992b 0e3e dc5d 0cbe
00000220: 3f91 fdbe d71c 19bd 0ed2 f43d 5e20 e63d
00000230: 0139 b1bd d1fc 20bd f0ba 283e e38e 883e
00000240: d0d6 e23d 3488 b1bd 0663 7abc e69c 283e
00000250: 79e7 b4bd 2ba1 223c bbe5 0ebe df40 76be
00000260: 8210 5cbe 6be4 87be d0fd 0dbe 9e39 5cbe
00000270: 826a 95be 265f 0bbf a3f8 a1be daa8 41be
00000280: 90ec 1abd bd74 42be 8964 5c3e 9950 eb3d
00000290: ff3a e8bd 7524 c93e c7d3 d53e e395 253f
000002a0: a6d2 183f 306b 053f 5eaa b83d a2b3 94be
000002b0: 4185 b53d 73a0 27be dcf9 0cbe f1d3 0f3e
000002c0: cbec a1be 5b32 77be c5ec ae3e 2354 423e
000002d0: f079 843d 053e 0bbf f374 81bd b6fd 423e
000002e0: e8e6 27be a8b5 26bc 0207 893e e88e 3f3f
000002f0: d95a 893e f716 ba3d 8be8 73be 1c15 40be
00000300: cd28 ba3d 5815 12bd 4bf2 7bbd 094d 643c
00000310: 33a2 5bbe 02be 7ebd 628e 283e 993e 88be
00000320: 897d eb3d 6a51 c9be 0015 323c 6fdb b5bd
00000330: 03fd 27be 2a60 d63e e067 883e b1b1 d53e
00000340: aec6 80bd 07ad 553c 70e1 a23e fff5 bb3e
00000350: 9459 823d 0190 823d 52ae 243d 2290 e5bd
00000360: b107 b3bd 985d 95be 1e79 c9be bd45 04bf
00000370: 2281 b2bd f6c4 833d 0981 e5bd 0489 fcbe
00000380: be86 d4be 8654 eabd 4680 e3be deb6 d6be
00000390: 4e95 20bd 72e9 28be 48d4 88be 2def b7bd
000003a0: 8de7 273e 7947 293e e0f5 80bd 829e 81bd
000003b0: 2f01 a23e d6c3 383f 0013 773e 21ef 94be
000003c0: 5ad5 6a3c e707 a33e b38c b5bd a8b3 11bf
000003d0: 88c7 d5be 1687 84bd 8c7a 103e 897e 26be
000003e0: ada0 04bf beb7 04bf 35d3 1bbd dc02 bcbe
000003f0: fc53 29be 2cf2 b63d 562b 5d3e 796c b43d
