code/examples/classifier_compression/weights_sin2Reg/cifar10_L3_weights2.npy (npy, 192128 bytes, 1 tensors)

array f4 [120, 400]
-0.07780994 -0.011419197 0.014189242 -0.009067042 -0.054561995 0.13398345 0.03512657 0.13706768
-0.13899554 -0.1387601 -0.01290811 -0.031234503 0.045389507 0.06676831 -0.16095296 -0.111639254
-0.033526115 0.090047695 -0.054012198 -0.07555569 -0.34693155 -0.116032384 -0.054665726 0.09419655
-0.20286448 -0.14431348 -0.0042186445 -0.009831643 0.0037897571 -0.06503956 -0.14472593 0.04625617
0.06879506 -0.007983307 -0.046777114 -0.095977224 0.034237392 0.0513729 -0.027492382 -0.07149472
-0.054913953 0.0017803056 -0.059306968 -0.06353059 -0.07497337 -0.02806854 -0.031254772 -0.073402196
-0.033714805 -0.078225136 -0.023565713 -0.005466359 0.036054343 -0.051015496 -0.06014077 0.051305946
0.00985957 -0.048024032 -0.029649463 -0.057532478 -0.027440518 -0.050780494 -0.05972273 -0.12894751
-0.1767046 -0.03802149 -0.08618491 -0.1372251 -0.16073917 -0.13417651 -0.033596557 -0.11424945
-0.2636137 -0.22630802 0.02518838 -0.09465422 -0.097802706 -0.053968262 -0.013936078 -0.041417684
-0.14042163 -0.10011424 -0.07906073 0.0014944496 -0.012366947 -0.13476905 -0.035883345 -0.009091248
0.090334296 0.1010485 -0.12492864 -0.021863014 -0.011956825 0.04750122 0.13862766 0.032297984
0.029311094 -0.00039710416 0.006109057 0.112679295 -0.11404709 -0.07631167 -0.121395506 -0.07664465
-0.0778031 -0.11683646 -0.015013197 -0.05428438 -0.043813396 -0.09043792 -0.05430979 0.016504345
-0.032881685 -0.05511952 -0.11618663 -0.10647838 -0.033085726 -0.08544248 -0.024315584 -0.14211904
-0.065345384 -0.020574728 -0.028437035 -0.03155347 -0.080525815 0.11086645 0.040394478 -0.075661115
-0.013778739 -0.014469627 0.19119275 0.047148637 -0.014268228 0.048595093 -0.057482395 0.064647235
-0.015334263 -0.032984115 -0.05357125 -0.116233036 0.027135735 -0.035211097 0.008002075 0.05264948
-0.11651831 0.103584 0.14194773 0.2043762 0.26470885 0.032220792 0.09215826 0.027467577
0.016312968 -0.046395168 -0.033989206 0.103788085 0.07439435 -0.018705582 0.0068610795 0.0752702
0.113266975 0.084771454 -0.004407581 -0.00035073367 -0.01381287 0.013332203 0.035325516 0.036068555
0.055232555 -0.091441855 -0.03222338 -0.07226537 -0.07998212 -0.14003322 -0.13521169 0.049314205
0.0322924 -0.032961033 -0.072503746 -0.0035883696 -0.064596646 -0.034271315 -0.09170113 0.0104693165
0.021273637 -0.09516078 -0.053099576 -0.111910865 -0.20011708 -0.10228537 -0.033526488 -0.033438202
-0.02977368 -0.1204805 -0.15995234 0.040525176 0.010339328 -0.034572672 -0.00949354 0.03710959
-0.020594299 -0.031627595 -0.058804397 -0.014021784 0.01047813 -0.05158022 -0.053032346 -0.07336813
-0.056955837 0.029520858 0.050796296 0.0005475138 -0.009368342 0.0051871575 0.07304058 0.06498921
0.032701656 0.033796888 0.040552597 0.092172645 -0.05421395 -0.07236955 -0.022095772 0.1361078
0.15798604 0.24275634 0.116043 -0.024418566 -0.015555569 0.07457679 0.20057602 -0.03401629
-0.12525004 -0.10797652 -0.012529814 -0.02280703 -0.07943044 -0.051578183 0.015348327 0.07313968
-0.019490544 0.030755078 -0.016565245 0.088098474 0.11159678 0.032710597 0.044505052 -0.0005668401
0.036737733 -0.09892568 -0.05285516 0.115309164 0.073509865 -0.13669193 -0.15855402 0.031410214
00000000: d15a 9fbd 9517 3bbc ff79 683c ee8d 14bc
00000010: 667c 5fbd f532 093e e1e0 0f3d 785b 0c3e
00000020: d954 0ebe 2117 0ebe 8a7c 53bc 80df ffbc
00000030: 59ea 393d d3bd 883d dad0 24be 1fa3 e4bd
00000040: ae52 09bd ed6a b83d e53b 5dbd f1bc 9abd
00000050: 03a1 b1be 63a2 edbd 2be9 5fbd 1fea c03d
00000060: b5bb 4fbe eac6 13be 8e3c 8abb e614 21bc
00000070: 935d 783b 7633 85bd 0933 14be 1c77 3d3d
00000080: 6de4 8c3d 6bcc 02bc 5c99 3fbd b58f c4bd
00000090: 823c 0c3d 646c 523d b437 e1bc d36b 92bd
000000a0: 74ed 60bd 2559 e93a ddeb 72bd 531c 82bd
000000b0: a38b 99bd ffef e5bc 0105 00bd e453 96bd
000000c0: 8918 0abd 8034 a0bd e20c c1bc 251f b3bb
000000d0: b8ad 133d a0f5 50bd 2b56 76bd 2f26 523d
000000e0: 098a 213c d9b4 44bd 6ee3 f2bc 2da7 6bbd
000000f0: f0ca e0bc 35ff 4fbd d29f 74bd d10a 04be
00000100: 0df2 34be 6cbc 1bbd b781 b0bd bd84 0cbe
00000110: cf98 24be 9165 09be 8b9c 09bd 9efb e9bd
00000120: 60f8 86be 4abd 67be dd57 ce3c 12da c1bd
00000130: c94c c8bd d30d 5dbd 2654 64bc 97a5 29bd
00000140: b0ca 0fbe b208 cdbd 98ea a1bd 68e1 c33a
00000150: bc9e 4abc e600 0abe 6afa 12bd 75f3 14bc
00000160: 3001 b93d 84f2 ce3d 96da ffbd 101a b3bc
00000170: 8fe6 43bc a490 423d 69f4 0d3e e44a 043d
00000180: d21d f03c 6b32 d0b9 7c2e c83b 67c4 e63d
00000190: 8591 e9bd 4b49 9cbd 359e f8bd dff7 9cbd
000001a0: 3b57 9fbd f447 efbd eaf9 75bc 4c59 5ebd
000001b0: ad75 33bd 8437 b9bd f173 5ebd 1f34 873c
000001c0: f2ae 06bd 01c5 61bd 42f3 edbd 5611 dabd
000001d0: e684 07bd 78fc aebd 7a31 c7bc a787 11be
000001e0: cdd3 85bd 558c a8bc c9f4 e8bc 363e 01bd
000001f0: b8ea a4bd f30d e33d ae74 253d 37f4 9abd
00000200: 38c0 61bc 0412 6dbc 08c8 433e ee1e 413d
00000210: 49c5 69bc a60b 473d a972 6bbd c565 843d
00000220: 903c 7bbc 5a1a 07bd 876d 5bbd 960b eebd
00000230: c34b de3c 8339 10bd 231b 033c fba6 573d
00000240: 27a1 eebd d923 d43d bf5a 113e ff47 513e
00000250: eb87 873e f3f9 033d 78bd bc3d af03 e13c
00000260: c6a2 853c dc08 3ebd 4438 0bbd d98e d43d
00000270: 115c 983d 733c 99bc e8d2 e03b 4327 9a3d
00000280: 84f8 e73d a89c ad3d 786d 90bb ade2 b7b9
00000290: 604f 62bc 506f 5a3c 7db1 103d 9fbc 133d
000002a0: 883b 623d de45 bbbd aafc 03bd deff 93bd
000002b0: aacd a3bd de64 0fbe ef74 0abe b1fd 493d
000002c0: 0945 043d 2602 07bd d87c 94bd da2a 6bbb
000002d0: 3f4b 84bd 1460 0cbd cdcd bbbd 7f87 2b3c
000002e0: 0d46 ae3c a8e3 c2bd f17e 59bd 8631 e5bd
000002f0: 7eeb 4cbe fe7a d1bd 1253 09bd 7ff6 08bd
00000300: efe7 f3bc 7bbe f6bd 8cca 23be bafd 253d
00000310: 4966 293c 139c 0dbd cb8a 1bbc 3a00 183d
00000320: 60b5 a8bc f08b 01bd e1dc 70bd a0bb 65bc
00000330: 76ac 2b3c c845 53bd 7238 59bd 0842 96bd
00000340: 864a 69bd bad5 f13c c70f 503d 0787 0f3a
00000350: ad7d 19bc 08f9 a93b 4d96 953d 1019 853d
00000360: 2cf2 053d 9b6e 0a3d 7b1a 263d 03c5 bc3d
00000370: 720f 5ebd 7d36 94bd 3102 b5bc d85f 0b3e
00000380: 18c7 213e 1e95 783e f4a7 ed3d 7209 c8bc
00000390: c9dc 7ebc b7bb 983d cd63 4d3e aa54 0bbd
000003a0: 8c41 00be cb22 ddbd d949 4dbc cfd5 babc
000003b0: 6dac a2bd a543 53bd 8d77 7b3c 42ca 953d
000003c0: a2aa 9fbc 13f2 fb3c d6b3 87bc f96c b43d
000003d0: da8c e43d 8cfb 053d ee4a 363d ff97 14ba
000003e0: 4e7a 163d 8c99 cabd a77e 58bd 3627 ec3d
000003f0: 578c 963d f8f8 0bbe fc5b 22be ffa7 003d
