code/examples/classifier_compression/w1_cifar.npy (npy, 1928 bytes, 1 tensors)

array f4 [6, 3, 5, 5]
0	0xbe46d4ff	-0.19417189
1	0xbe0cc473	-0.13746814
2	0xbc876aaa	-0.016530354
3	0xbd1263d6	-0.035739742
4	0xbb718b2c	-0.0036856635
5	0xbe285c57	-0.16441475
6	0xbcfebee8	-0.03109689
7	0xbe241f8d	-0.1602766
8	0xbdf80944	-0.12111142
9	0xbdccbff2	-0.09997548
10	0xbe1a2097	-0.15051495
11	0xbd4a8177	-0.049439874
12	0xbe190116	-0.1494182
13	0xbcb942f3	-0.022614932
14	0xbdbe8b0e	-0.09303866
15	0xbcbe2a1c	-0.023213439
16	0x3d6137dd	0.054984916
17	0x3e07cca2	0.13261655
18	0xbd2f31ba	-0.042772032
19	0x3c104639	0.008805805
20	0x3e002384	0.12513548
21	0x3dd5ae0a	0.10433586
22	0xbd22e79d	-0.039771665
23	0x3d0ad320	0.03389275
24	0x3dd0587c	0.10173127
25	0xbdea4b12	-0.114401
26	0xbd0ecb66	-0.034861945
27	0x3c22ede5	0.009944414
28	0xbd7c93b2	-0.06166429
29	0xbde22c9d	-0.110436656
30	0x3d44f6a6	0.048086785
31	0xbe032766	-0.12807998
32	0xbdd71d0b	-0.105035864
33	0x3bb48d17	0.0055099833
34	0x3d39c351	0.045352284
35	0xbcdeff28	-0.027221277
36	0xbd997a61	-0.07494045
37	0xbde078ae	-0.10960518
38	0xbd9ca563	-0.076487325
39	0x3d97dec0	0.07415533
40	0x3dd0d896	0.101975605
41	0x3e07992d	0.13242026
42	0x3def8c45	0.11696676
43	0x3ddd0479	0.10791869
44	0x3e009f30	0.12560725
45	0x3ce33a3b	0.027737727
46	0x3d81d95d	0.06340287
47	0x3e2e2516	0.17006335
48	0x3d10c6ef	0.035345968
49	0xbc987688	-0.018611208
50	0xbd0d47b7	-0.03449222
51	0xbd5a189a	-0.053246118
52	0xbd272c3a	-0.040813662
53	0x3df923f1	0.121650584
54	0x3e0d4615	0.13796265
55	0x3e00200e	0.12512228
56	0xbbcc70e7	-0.006239045
57	0x3e24537b	0.1604747
58	0x3c1932b9	0.009350472
59	0xbd864f31	-0.06558073
60	0xbc10d305	-0.0088393735
61	0x3de7078a	0.11280735
62	0x3dbdcd7b	0.09267708
63	0xbc9c87c9	-0.019107716
64	0x3df3eb70	0.119101405
65	0x3da5641e	0.080757365
66	0x3d6b9dc9	0.057523523
67	0x3e292995	0.16519769
68	0x3e032d5b	0.1281027
69	0x3e53c791	0.20681597
70	0xbd186e1e	-0.03721439
71	0x3ddf0124	0.108888894
72	0x3d6486a8	0.05579248
73	0x3e0c2099	0.1368431
74	0x3e050e5d	0.1299376
75	0x3d08039d	0.03320657
76	0x3e21e97f	0.15811728
77	0x3d992a38	0.07478756
78	0x3d800c87	0.062523894
79	0x3e547a52	0.20749786
80	0xbe1324f4	-0.14369565
81	0x3c11517d	0.008869526
82	0xbd278767	-0.040900614
83	0x3dc4021c	0.09570715
84	0x3d2fab8f	0.04288822
85	0xbe983489	-0.2972758
86	0xbe6f61ef	-0.23377202
87	0xbe7645fe	-0.24050137
88	0xbdd42569	-0.10358698
89	0xbe820e6d	-0.2540163
90	0xbe74d91e	-0.23910949
91	0xbe23bcb3	-0.15989952
92	0xbe2b7b4c	-0.16746253
93	0xbd89d870	-0.06730735
94	0xbde3e0da	-0.111268714
95	0x3dcb06c9	0.099134035
96	0x3d28a8c4	0.041176572
97	0x3d0515ae	0.03249138
98	0x3c1614ae	0.009160204
99	0xbd72467e	-0.059149258
100	0x3e4b4c8d	0.1985342
101	0x3e2e8e65	0.17046507
102	0x3e3570e2	0.17718843
103	0x3e19cfea	0.15020719
104	0x3d856fee	0.065154895
105	0x3dbb9d02	0.09160806
106	0x3dc0a1b1	0.0940584
107	0xbcd465c9	-0.025927441
108	0xbba9c29d	-0.0051806704
109	0xbb70f143	-0.0036764897
110	0xbd9c82cc	-0.07642135
111	0x3c3668f4	0.011133421
112	0xbe3590cb	-0.17731015
113	0xbd2fea86	-0.04294827
114	0xbe0c8656	-0.1372312
115	0x3c211289	0.009831079
116	0xbded5c6b	-0.11589893
117	0xbd122199	-0.035676572
118	0xbdcd37a9	-0.10020382
119	0xbe1e0911	-0.15433146
120	0x3c86a9c3	0.01643837
121	0x3dc00760	0.09376407
122	0x3dc6c0eb	0.09704765
123	0x3da024a0	0.07819486
124	0x3de20a48	0.11037117
125	0xbcb4efda	-0.022087026
126	0x3e01fd54	0.12694293
127	0x3e459a8f	0.1929724
128	0x3e47af56	0.19500479
129	0x3d7b589a	0.061363794
130	0x3d859794	0.06523052
131	0x3c261125	0.0101359235
132	0x3d2190fd	0.039444912
133	0x3dcd5a72	0.10027017
134	0xbd4ae194	-0.049531534
135	0x3b0a67bb	0.0021118957
136	0x3b8f3e84	0.004371466
137	0xbe018276	-0.12647423
138	0xbe0eac41	-0.13932897
139	0xbd3ccb26	-0.046092175
140	0xbd1c07bd	-0.038093317
141	0xbbff3ec8	-0.0077894665
142	0xbdcc76f2	-0.099836245
143	0x3cd7b47a	0.026331175
144	0xbe1868b1	-0.14883687
145	0x3d8938d2	0.06700291
146	0x3cd2ffc0	0.025756717
147	0x3d88edc3	0.066859744
148	0x3e3686ec	0.17824906
149	0x3e47b378	0.19502056
150	0xbc9fba97	-0.019498153
151	0xbd1aa5a4	-0.037755623
152	0x3c6c024d	0.014404845
153	0xbde3e1c0	-0.11127043
154	0xbde75aeb	-0.11296638
155	0x3b604940	0.0034223348
156	0x3e34f45f	0.17671345
157	0xbd5b6f5f	-0.05357301
158	0xbde61033	-0.112335585
159	0xbdd33d13	-0.10314383
160	0x3d2ae2d3	0.041720223
161	0x3e1c5f3c	0.15270704
162	0xbd5a42d2	-0.05328638
163	0xbdebcb1c	-0.115133494
164	0xbdc32864	-0.09529188
165	0x3dfd6b56	0.12373988
166	0xbd4ee957	-0.0505155
167	0xbdc0433c	-0.09387824
168	0xbdebbd1f	-0.11510681
169	0xbcf9d5eb	-0.030497512
170	0x3e165f93	0.14684896
171	0xbdc65c51	-0.09685577
172	0xbb838452	-0.0040135765
173	0xbe14431e	-0.14478728
174	0x3cc8fa3b	0.024533382
175	0xbc43dd41	-0.0119546065
176	0x3de21f5c	0.110411376
177	0xbd003d4b	-0.031308454
178	0x3cbe7fd1	0.023254307
179	0xbdd18675	-0.10230724
180	0x3db41a3e	0.08794068
181	0x3da7bced	0.081903316
182	0xbde0878b	-0.10963353
183	0xbcdd996f	-0.027050702
184	0xbdb16782	-0.08662321
185	0x3d8f1f7b	0.06988426
186	0x3d92cb13	0.071676396
187	0xbd0b22f2	-0.033968873
188	0xbd6b35d8	-0.057424396
189	0xbc5e3b99	-0.013564014
190	0x3dff7aac	0.1247457
191	0xbd69c857	-0.057075825
192	0x3d7751a0	0.060380578
193	0xbca1ce31	-0.01975164
194	0xbce0dd83	-0.027449375
195	0x3e2a489b	0.1662926
196	0x3c17c904	0.009264234
197	0xbdcb132c	-0.09915766
198	0xbd198651	-0.03748161
199	0x3d802f29	0.06258995
200	0x3dac6755	0.084181465
201	0x3c9c0390	0.019044667
202	0x3c7b7fdc	0.015350308
203	0xbdbe52c5	-0.09293131
204	0xbe025730	-0.12728572
205	0x3c61dc4f	0.013785436
206	0x3da0bf81	0.078490265
207	0xbdea4aae	-0.11440025
208	0xbe3ca0e9	-0.18420757
209	0xbde1a961	-0.110186346
210	0xbd403927	-0.046929505
211	0x3e0f6ac2	0.14005569
212	0xbd8f2fb6	-0.06991522
213	0xbe0086c6	-0.12551412
214	0xbe034caf	-0.12822221
215	0x3db6135e	0.08890413
216	0xba76f811	-0.000942112
217	0xbe11ad9d	-0.14226384
218	0xbdd000ba	-0.101563886
219	0xbde638dc	-0.11241314
220	0x3e1bc2a3	0.15210967
221	0xbb059416	-0.0020382456
222	0xbe12f993	-0.14353018
223	0xbd4ae594	-0.04953535
224	0xbd80aea8	-0.06283313
225	0xbd6a8d69	-0.057263765
226	0x3db2cb87	0.08730226
227	0xbda63b33	-0.0811676
228	0xbc2c899c	-0.0105308555
229	0x3ccd430a	0.02505638
230	0x3ba8744d	0.0051408173
231	0xbc1d4e47	-0.009601182
232	0x3c9c6197	0.019089503
233	0x3cdaddce	0.026717093
234	0x3dd29d17	0.10283869
235	0xbe2d833a	-0.1694459
236	0xbd802479	-0.062569566
237	0x3db4f405	0.088356055
238	0x3d95edb3	0.07320728
239	0x3e02109f	0.12701653
240	0xbe5f2097	-0.21789776
241	0x3d23f975	0.040032823
242	0x3d956511	0.072946675
243	0x3dfeaf9d	0.12435839
244	0x3db72224	0.08942059
245	0xbe3fbf11	-0.1872523
246	0x3d182e8f	0.037153777
247	0xbd973f1b	-0.07385083
248	0x3dc2e5bd	0.09516475
249	0x3e0a33cf	0.13496326
250	0x3da16c45	0.07881979
251	0xbd7b7ede	-0.061400287
252	0xbda34563	-0.07972219
253	0x3db9722d	0.090549804
254	0xbd3a96ba	-0.0455539
255	0xbd69d0e0	-0.057083964
